ckpt/('cora', 1.0, 8.0, 4, 2, 'sage').pt (torch, 559031 bytes, 18 tensors)

gnn.conv1.lin_l.weight f4 [16, 1432]
0.008349873 0.019484138 -0.013574192 -0.0046074996 -0.008211173 -0.01728778 -0.007010786 -0.004609273
-0.006321475 -0.0046116784 -0.0140499035 -0.022956865 -0.004583184 -0.021700922 -0.0028651461 0.03780134
-0.016434899 0.056580592 0.0021149383 -0.05709812 -0.0046124756 -0.004613076 0.0053813145 -0.0046112044
-0.02081316 -0.0022617255 -0.038452405 0.025672713 -0.036550548 -0.049764954 -0.0046114256 0.0026189159
-0.0040653464 -0.0060267053 -0.004608667 0.00084806 0.030455127 0.030114468 -0.0018106812 0.02042142
-0.02038968 -0.043384284 0.0379546 -0.04231444 -0.0046071126 -0.0015154766 -0.0046125646 -0.0046121017
-0.012497489 0.0059460704 -0.029222816 -0.013603537 -0.07675805 -0.004612159 0.00018984797 -0.028780052
-0.032046027 -0.015946887 -0.0046649114 0.04487559 -0.003886446 -0.004612286 0.022305438 0.03333008
0.036789346 -0.03580429 0.05137101 -0.004611576 0.035175942 -0.0032537235 -0.028166255 0.027234487
0.017078847 -0.0046085943 -0.004610152 -0.0024755723 0.02380018 -0.015046452 -0.058952007 -0.004609737
-0.0038451494 -0.03964939 0.018872434 -0.0031222603 -0.024900017 0.0064652716 -0.031173365 -0.0046098037
-0.019416612 -0.03817919 -0.011717205 -0.027363284 -0.00012520707 0.019326936 -0.031763665 -0.004610557
0.016238054 0.017182035 0.046218954 0.032875568 0.020826438 0.011252546 0.010841573 0.0063911257
0.0023175816 0.048749108 0.0818777 -0.024990536 -0.004608798 0.0013088161 0.01160052 0.031503856
0.018872093 0.010545597 -0.00461256 -0.015969928 -0.0046118023 0.0053770496 0.012031779 -0.016911421
0.029375955 0.013763043 -0.0422603 -0.0025449153 -0.05937001 0.012970282 0.047840483 0.05071373
-0.0046123513 0.015806414 -0.0069381148 -0.00916071 0.029246828 -0.004611877 -0.026372368 0.017465312
-0.027299922 -0.004608043 -0.038471073 -0.00031387614 -0.038582526 -0.018341344 -0.0046088914 -0.053361926
-0.012824547 -0.004608204 -0.06911767 -0.0056800856 -0.009070474 0.0663651 0.04205815 -0.011716854
0.003956885 -0.0046130917 0.034730405 -0.053228598 0.037898168 -0.02013709 0.022065058 0.009393844
0.0015005472 0.036571797 -0.013395887 0.058316175 -0.004075172 -0.0341751 -0.0046130233 -0.0046123713
0.02213528 -0.008481453 -0.004610432 -0.0037985386 0.037096437 0.0012099058 -0.004103117 0.059572782
0.008075431 0.0075979386 -0.016540512 -0.025153168 0.013280859 0.02085413 -0.0046112556 0.003237403
-0.0015099102 -0.004611591 -0.014944024 -0.029619528 -0.0077006705 -0.00460889 -0.023987653 -0.042319622
0.019153299 0.010719414 0.014834496 -0.010785512 -0.007832534 -0.0046130666 -0.022498654 -0.02040896
-0.02243341 -0.0046086595 -0.006059142 0.009924668 0.050079387 -0.01903181 -0.03828109 0.016922662
-0.02241301 -0.003574318 -0.004608517 0.01346882 -0.0046127196 0.008233491 0.0015260302 -0.0584663
0.04046899 -0.010706747 -0.045672785 -0.027701665 -0.00461308 0.028842727 -0.096874714 -0.004612896
0.04162951 -0.0046129515 -0.029862309 -0.016984943 -0.016943809 0.026081147 -0.004613089 -0.0036370805
0.04988204 0.0084510185 -0.031119023 -0.022698598 0.054350343 0.016952878 -0.0046128463 0.00689244
0.030104415 -0.0057917167 -0.0015416257 0.047713455 0.05554263 -0.004609403 0.008450854 0.008205273
-0.071050495 -0.0046123546 -0.0046113003 -0.011667705 -0.014102137 0.025591664 0.019069318 0.017762968
00000000: e8cd 083c 339d 9f3c 4a66 5ebc 82fa 96bb
00000010: 2888 06bc 1a9f 8dbc bcba e5bb 6209 97bb
00000020: 6024 cfbb 901d 97bb 9131 66bc 0910 bcbc
00000030: 892e 96bb 22c6 b1bc 2dc5 3bbb 94d5 1a3d
00000040: 7ba2 86bc 0dc1 673d c79a 0a3b b8df 69bd
00000050: 4024 97bb 4929 97bb bd55 b03b 9619 97bb
00000060: 5c80 aabc 7539 14bb 4580 1dbd 954f d23c
00000070: 07b6 15bd 56d6 4bbd 711b 97bb 1ea2 2b3b
00000080: 9936 85bb ab7b c5bb 4d04 97bb 5850 5e3a
00000090: 087d f93c 9eb2 f63c 6154 edba d24a a73c
000000a0: 4208 a7bc b8b3 31bd 4876 1b3d e851 2dbd
000000b0: 43f7 96bb f5a2 c6ba ff24 97bb 1d21 97bb
000000c0: 45c2 4cbc 41d7 c23b b064 efbc 5fe1 5ebc
000000d0: 5333 9dbd 9821 97bb ed11 4739 25c4 ebbc
000000e0: b242 03bd 0ca3 82bc 1ddc 98bb 77cf 373d
000000f0: beb3 7ebb a922 97bb e5b9 b63c 1f85 083d
00000100: 6db0 163d 85a7 12bd 686a 523d b41c 97bb
00000110: a614 103d 6c3c 55bb ebbc e6bc dc1a df3c
00000120: f0e8 8b3c b103 97bb c210 97bb 363d 22bb
00000130: 98f8 c23c 6585 76bc a977 71bd 470d 97bb
00000140: e7fe 7bbb 6667 22bd 5d9a 9a3c d69e 4cbb
00000150: 1ffb cbbc a1da d33b 495f ffbc d60d 97bb
00000160: 960f 9fbc c861 1cbd 85f9 3fbc f728 e0bc
00000170: 044a 03b9 8653 9e3c 9e1a 02bd 2814 97bb
00000180: ab05 853c 57c1 8c3c 1650 3d3d 88a8 063d
00000190: 359c aa3c 995c 383c daa0 313c a66c d13b
000001a0: 91e2 173b 25ad 473d 7faf a73d f4b8 ccbc
000001b0: 6605 97bb 958c ab3a 1c10 3e3c 300a 013d
000001c0: a699 9a3c 71c7 2c3c f524 97bb 5ed3 82bc
000001d0: 9a1e 97bb f631 b03b f020 453c d289 8abc
000001e0: d8a5 f03c 637e 613c 2319 2dbd 98c8 26bb
000001f0: f82d 73bd 4e81 543c 62f4 433d 33b9 4f3d
00000200: 3523 97bb 747c 813c 2059 e3bb cd16 16bc
00000210: 0b97 ef3c 3a1f 97bb dd0a d8bc 6a13 8f3c
00000220: 16a4 dfbc 11ff 96bb d893 1dbd be8f a4b9
00000230: b608 1ebd 9640 96bc 2f06 97bb 0992 5abd
00000240: 0c1e 52bc 6b00 97bb 918d 8dbd 0320 babb
00000250: 539c 14bc 6dea 873d 2b45 2c3d 0cf8 3fbc
00000260: c2a8 813b 6b29 97bb 7841 0e3d 3b06 5abd
00000270: 1c3b 1b3d 8af6 a4bc c8c1 b43c a3e8 193c
00000280: 02ae c43a 4fcc 153d 6c7a 5bbc f1dc 6e3d
00000290: 0589 85bb 31fb 0bbd d828 97bb 6023 97bb
000002a0: 0c55 b53c cbf5 0abc 1b13 97bb e7f0 78bb
000002b0: 6ff2 173d b495 9e3a 7173 86bb 9702 743d
000002c0: d04e 043c 21f8 f83b f87f 87bc 040e cebc
000002d0: f697 593c 48d6 aa3c 041a 97bb 9c2a 543b
000002e0: 2ee8 c5ba d41c 97bb c8d7 74bc a7a4 f2bc
000002f0: e855 fcbb 2c06 97bb c181 c4bc 5757 2dbd
00000300: 61e7 9c3c 7ba0 2f3c 630c 733c b7b5 30bc
00000310: 0754 00bc 3529 97bb 194f b8bc b130 a7bc
00000320: 45c6 b7bc 3d04 97bb c48b c6bb 139b 223c
00000330: 0b20 4d3d 99e8 9bbc a2cc 1cbd 65a1 8a3c
00000340: 7d9b b7bc 1b3f 6abb 0b03 97bb 53ac 5c3c
00000350: 4c26 97bb c4e5 063c 1405 c83a 5c7a 6fbd
00000360: d0c2 253d 5a6b 2fbc 6313 3bbd 9aee e2bc
00000370: 5229 97bb 9547 ec3c 4066 c6bd c727 97bb
00000380: b483 2a3d 3e28 97bb cda1 f4bc 0224 8bbc
00000390: becd 8abc 21a8 d53c 6529 97bb 165c 6ebb
000003a0: 1c51 4c3d 2476 0a3c 52ed febc 69f2 b9bc
000003b0: 779e 5e3d c3e0 8a3c 5c27 97bb fad9 e13b
000003c0: 899d f63c 71c8 bdbb 6010 caba 2f6f 433d
000003d0: ab80 633d 7a0a 97bb 7375 0a3c 696f 063c
000003e0: ec82 91bd 3c23 97bb 641a 97bb e729 3fbc
000003f0: a60c 67bc 9ca5 d13c 4237 9c3c a583 913c

gnn.conv1.lin_l.bias f4 [16]
-0.0074494663 -0.00025790618 0.0058410293 -0.0012029104 -0.0069477744 0.0020961661 0.0014933972 -0.00411411
-0.0053063775 -0.005247237 0.006192582 -0.0014181983 -0.0029847934 0.0028775716 -0.002200378 -0.005561545
00000000: a71a f4bb 9537 87b9 1b66 bf3b faaa 9dba
00000010: 28aa e3bb d55f 093b 18be c33a a8cf 86bb
00000020: 1fe1 adbb 04f1 abbb 25eb ca3b d7e2 b9ba
00000030: 869c 43bb a495 3c3b 3834 10bb 9f3d b6bb

gnn.conv1.lin_r.weight f4 [16, 1432]
-0.0026810449 0.0037199315 -0.04016019 -0.011730128 0.014104669 -0.09657885 -0.00929959 -0.011722548
-0.012226866 -0.011715317 -0.0052469214 0.00029188828 0.00664306 -0.035557922 0.014553941 0.022229906
-0.001220328 0.043824617 0.03126483 -0.02201483 -0.011726758 -0.011721597 0.0025932842 -0.011708856
-0.019148052 0.010006882 -0.014673069 0.033429205 0.09519595 -0.07013093 -0.011715633 -0.0052861385
0.013237567 -0.013386176 -0.011731453 0.009158452 0.03055227 0.06393855 0.0026751123 -0.06457186
-0.036416464 -0.05408129 0.026744703 -0.0007817318 -0.011726455 -0.003454159 -0.0117261335 -0.011717662
-0.010800957 -0.020782586 -0.059577554 -0.029866623 -0.069185965 -0.011722864 0.01642811 -0.03614377
0.008558191 -0.008763572 0.019009162 -0.0070101353 -0.0067371544 -0.011711366 -0.0008993837 0.05915782
0.023266591 -0.059856508 0.050242983 -0.011723235 0.023712562 -0.0014858121 -0.046600863 0.04407922
0.031312864 -0.011730103 -0.011729921 0.015468967 0.037709277 0.026423018 -0.05901421 -0.011715224
-0.015109407 0.02059786 -0.053106036 -0.029314358 -0.07852385 -0.006022187 0.00648189 -0.011732321
-0.059414137 -0.02508885 -0.0029281704 -0.061238125 0.03434449 -0.002628413 0.038590733 -0.011709028
0.027416522 0.04519688 0.034787845 0.040420152 0.069240525 -0.02877983 0.011241215 0.019131586
-0.01900056 -0.0032875189 0.07150151 -0.11002235 -0.011724061 0.0059636896 0.015189265 -0.013422847
0.006752765 0.057556286 -0.011732064 0.007136476 -0.0117233265 -0.007987527 0.005033088 -0.015329608
0.11069902 0.018550612 -0.0059954184 -0.0035663866 -0.07147026 0.032999296 -0.03883098 -0.025143744
-0.0117312465 0.0037634915 -0.012910563 -0.0971805 0.022985559 -0.011732316 0.008119014 0.021221196
0.0067584324 -0.011731163 -0.00011123921 0.017480247 -0.036670033 -0.022757953 -0.011723982 -0.042833716
-0.0149171455 -0.01172753 -0.09956941 0.02716845 0.008188336 0.061027125 0.12591454 0.002651615
0.009174425 -0.01171507 -0.0056593465 -0.07777037 0.02133457 -0.05145725 0.0068160472 -0.014111423
-0.051611464 0.036055725 -0.024211736 0.037592515 -0.01091213 -0.049909957 -0.011723169 -0.011720612
0.016995713 -0.0046006204 -0.011722798 0.03841347 0.051734187 -0.002795317 -0.010275564 0.08843478
0.061472364 -0.0037827494 -0.013658304 -0.0013008433 0.06175659 0.008391419 -0.011726135 0.0025275338
-0.0054285093 -0.0117192045 0.03048384 -0.036165494 0.051654335 -0.0117167225 -0.06740632 -0.0552393
-0.04105412 -0.036329698 0.027810918 -0.060408004 0.024463246 -0.011730923 -0.020535965 -0.054311566
0.017604208 -0.0117228795 -0.009765399 -0.009627242 0.0836256 -0.029113278 -0.019791825 0.014817718
0.007557741 0.0149852075 -0.011727837 0.035315752 -0.011718157 0.032192707 -0.043384206 -0.04747592
0.018627245 0.0037143645 -0.007883154 -0.07544139 -0.011718713 0.05048796 -0.06593314 -0.011727514
0.08514065 -0.011720075 -0.06798618 -0.0050967527 -0.038518332 -0.017669475 -0.0117120845 -0.030011661
0.08622369 -0.011255295 -0.02371743 -0.03164024 0.06418517 0.044983413 -0.011718182 0.011585564
0.049146734 0.0070742075 0.005221943 -0.023883725 0.034255106 -0.011729663 0.01923917 0.019989384
-0.12102998 -0.011719609 -0.011731348 -0.053171232 -0.0010101253 0.018462464 0.0067303507 0.0103593515
00000000: 78b4 2fbb 18ca 733b 037f 24bd b92f 40bc
00000010: 4517 673c 22cb c5bd 4f5d 18bc ee0f 40bc
00000020: 3153 48bc 9af1 3fbc 5eee abbb 9508 9939
00000030: 07ae d93b 2fa5 11bd a773 6e3c 7e1b b63c
00000040: 6af3 9fba 7181 333d 8d0f 003d 7258 b4bc
00000050: 9721 40bc f10b 40bc 17f4 293b 80d6 3fbc
00000060: 60dc 9cbc e8f3 233c 5067 70bc 10ed 083d
00000070: 18f6 c23d cea0 8fbd edf2 3fbc 5837 adbb
00000080: 61e2 583c b151 5bbc 4835 40bc 550d 163c
00000090: c148 fa3c 37f2 823d f050 2f3b 403e 84bd
000000a0: 6e29 15bd 5884 5dbd b517 db3c 22ed 4cba
000000b0: 5120 40bc 2c5f 62bb f81e 40bc 70fb 3fbc
000000c0: 7ff6 30bc 3e40 aabc 9807 74bd d9aa f4bc
000000d0: 5fb1 8dbd 4111 40bc 3e94 863c 7d0b 14bd
000000e0: a837 0c3c 1695 0fbc 1ab9 9b3c 47b5 e5bb
000000f0: 59c3 dcbb 07e1 3fbc 9ec4 6bba 784f 723d
00000100: 9499 be3c 192c 75bd 96cb 4d3d d012 40bc
00000110: d940 c23c 95bf c2ba 8ce0 3ebd 6a8c 343d
00000120: eb41 003d 9e2f 40bc db2e 40bc 8d71 7d3c
00000130: 0b75 1a3d 1675 d83c e2b8 71bd 36f1 3fbc
00000140: 728d 77bc d8bc a83c b785 59bd aa24 f0bc
00000150: 1dd1 a0bd c455 c5bb 0966 d43b ec38 40bc
00000160: 3d5c 73bd 2287 cdbc 8ce6 3fbb d4d4 7abd
00000170: cfac 0c3d 7441 2cbb 5111 1e3d 39d7 3fbc
00000180: 9d98 e03c 5d20 393d b37d 0e3d 9a8f 253d
00000190: facd 8d3d aec3 ebbc 132d 383c d8b9 9c3c
000001a0: 10a7 9bbc 6a73 57bb 626f 923d 6653 e1bd
000001b0: 4716 40bc 0e6b c33b 65dc 783c 80eb 5bbc
000001c0: 4c46 dd3b 24c0 6b3d d837 40bc 1ad9 e93b
000001d0: 3213 40bc 1ede 02bc 9aec a43b 0929 7bbc
000001e0: 2bb6 e23d 74f7 973c 3775 c4bb 0aba 69bb
000001f0: 005f 92bd 452a 073d 3c0d 1fbd 41fa cdbc
00000200: 6a34 40bc e9a4 763b d386 53bc 9206 c7bd
00000210: 364c bc3c e638 40bc 9d05 053c 13d8 ad3c
00000220: d775 dd3b 1034 40bc 1949 e9b8 bc32 8f3c
00000230: 5133 16bd e36e babc f215 40bc 6872 2fbd
00000240: 0b67 74bc d324 40bc 0ceb cbbd 5f90 de3c
00000250: 5f28 063c 94f7 793d beef 003e b8c6 2d3b
00000260: 5450 163c 91f0 3fbc 0a72 b9bb 1246 9fbd
00000270: d6c5 ae3c d6c4 52bd 2659 df3b 9933 67bc
00000280: 8b66 53bd 2baf 133d b157 c6bc 9cfa 193d
00000290: cac8 32bc 626e 4cbd 8912 40bc cf07 40bc
000002a0: 983a 8b3c cdc0 96bb fb10 40bc 7157 1d3d
000002b0: 3ae7 533d a331 37bb d75a 28bc 4b1d b53d
000002c0: 72ca 7b3d 01e8 77bb 14c7 5fbc 0f81 aaba
000002d0: 7af4 7c3d 2a7c 093c fa1e 40bc fba4 253b
000002e0: a3e1 b1bb e801 40bc 3fb9 f93c 4522 14bd
000002f0: 7f93 533d 7ff7 3fbc 530c 8abd 9b42 62bd
00000300: 5d28 28bd 73ce 14bd b9d3 e33c 626e 77bd
00000310: 2567 c83c 0f33 40bc 0a3b a8bc ce75 5ebd
00000320: b336 903c 5211 40bc 0dff 1fbc 94bb 1dbc
00000330: e643 ab3d f87e eebc 7722 a2bc 04c6 723c
00000340: eda6 f73b 8484 753c 1d26 40bc 40a7 103d
00000350: 83fd 3fbc 80dc 033d a3b3 31bd 1c76 42bd
00000360: 2a98 983c b26c 733b 5828 01bc 0481 9abd
00000370: d8ff 3fbc 77cc 4e3d f407 87bd c224 40bc
00000380: 395e ae3d 8f05 40bc 573c 8bbd a902 a7bb
00000390: 66c5 1dbd 93bf 90bc 0be4 3fbc 04db f5bc
000003a0: 0c96 b03d 2168 38bc 0e4b c2bc 3299 01bd
000003b0: 8473 833d 8740 383d 9efd 3fbc 61d1 3d3c
000003c0: 164e 493d c1ce e73b d51c ab3b cda7 c3bc
000003d0: 154f 0c3d c62d 40bc 779b 9d3c c7c0 a33c
000003e0: 91de f7bd 9a03 40bc d734 40bc 14ca 59bd
000003f0: 2e66 84ba 983e 973c 468a dc3b 45ba 293c

gnn.conv2.lin_l.weight f4 [7, 16]
0.048553295 -0.08245765 -0.2728148 -0.07417469 0.25112692 -0.1680039 -0.17708856 0.2071664
0.033862535 0.0006340822 0.1183176 0.13147013 0.17070292 -0.13090654 -0.003969367 -0.053233974
-0.026723415 -0.02867048 0.08276508 0.1566744 0.16871145 0.18888944 -0.15360326 -0.17619902
-0.16195205 -0.01872393 -0.12634058 -0.06102008 -0.09735498 -0.07394908 -0.036442623 -0.09665117
-0.01486709 -0.15804683 0.07693209 0.12047006 -0.17632315 -0.19284071 0.12532309 0.10431335
-0.03410823 -0.008937872 -0.30628875 0.15796551 -0.23965512 0.13779014 0.22231825 -0.13665055
0.2750428 0.22847198 0.08856326 -0.17837808 -0.019317904 0.20706117 -0.15789902 -0.102261044
-0.055034224 -0.11876775 -0.014976076 -0.08570672 0.10323965 0.14710975 0.048154637 0.15420918
-0.023960805 -0.22637814 -0.049298916 -0.20442118 -0.08038482 -0.114442654 0.11025492 -0.24014582
0.10702953 0.3170093 0.15583426 0.21395908 -0.21572986 -0.04569877 -0.14451821 0.1150657
-0.059876606 0.24651834 -0.14293589 0.19035764 -0.13213539 -0.13205108 0.16802442 -0.045147046
0.25746483 -0.17375587 -0.12220236 -0.13329133 -0.032684177 -0.08034123 -0.097809374 -0.27210513
-0.11053792 -0.08257871 -0.09240923 -0.15195833 -0.13882156 0.15271464 0.12062452 0.1262241
-0.030997256 -0.079981714 0.1441299 -0.14922749 -0.15627706 -0.028744498 -0.07616738 -0.16586529
00000000: d2df 463d 8edf a8bd 62ae 8bbe e6e8 97bd
00000010: b593 803e 3709 2cbe b456 35be 6e23 543e
00000020: 71b3 0a3d 8938 263a 7f50 f23d 1ba0 063e
00000030: bfcc 2e3e 5d0c 06be 7711 82bb de0b 5abd
00000040: 10eb dabc 5bde eabc bd80 a93d 416f 203e
00000050: b2c2 2c3e 3c6c 413e 2c4a 1dbe 846d 34be
00000060: c2d6 25be ed62 99bc 6d5f 01be 31f0 79bd
00000070: 0c62 c7bd 9e72 97bd dc44 15bd 0cf1 c5bd
00000080: 1895 73bc 07d7 21be 928e 9d3d 02b9 f63d
00000090: 0e8e 34be 0978 45be b254 003e 3da2 d53d
000000a0: 12b5 0bbd 2770 12bc e1d1 9cbe b6c1 213e
000000b0: 2768 75be dc18 0d3e 65a7 633e 1fee 0bbe
000000c0: 69d2 8c3e 8ff4 693e a860 b53d bea8 36be
000000d0: 9540 9ebc d807 543e 48b0 21be 3d6e d1bd
000000e0: 916b 61bd 823c f3bd 375e 75bc 0187 afbd
000000f0: 4f6f d33d f0a3 163e cc3d 453d 03e9 1d3e
00000100: 7349 c4bc accf 67be a9ed 49bd c953 51be
00000110: cca0 a4bd e960 eabd 55cd e13d c9e8 75be
00000120: 4c32 db3d 0b4f a23e 0493 1f3e 1718 5b3e
00000130: 4ae8 5cbe a22e 3bbd 95fc 13be 91a7 eb3d
00000140: 2c41 75bd 4e6f 7c3e c95d 12be 1ded 423e
00000150: 804e 07be 6638 07be 980e 2c3e 1cec 38bd
00000160: 6ed2 833e 0fed 31be 3b45 fabd 867d 08be
00000170: d8df 05bd f189 a4bd 4850 c8bd 5d51 8bbe
00000180: b461 e2bd 071f a9bd 0d41 bdbd f79a 1bbe
00000190: 3d27 0ebe 3a61 1c3e fd09 f73d e440 013e
000001a0: f5ed fdbc 74cd a3bd ca96 133e 17cf 18be
000001b0: 1807 20be 9579 ebbc a5fd 9bbd 97d8 29be

gnn.conv2.lin_l.bias f4 [7]
0.03639762 0.001984418 -0.047445863 0.042849343 -0.06164871 0.044494312 -0.009799181
00000000: ac15 153d 020d 023b 9856 42bd cb82 2f3d
00000010: 5c83 7cbd ab3f 363d be8c 20bc

gnn.conv2.lin_r.weight f4 [7, 16]
-0.03708537 7.708764e-05 -0.29579222 0.097738706 0.12853442 -0.17471151 -0.18909363 0.14722423
-0.04256622 0.14579439 0.12177434 0.047838822 0.14002676 -0.1571365 0.15777266 -0.14140011
-0.09173392 -0.06371023 0.2169714 0.121614516 0.11539896 0.16669832 -0.15104897 -0.112198964
-0.119222865 -0.055509295 -0.19925565 0.07535069 -0.18096475 -0.072223805 -0.070730686 -0.05562977
0.10320452 -0.23188604 0.18487182 0.101338245 -0.11102126 -0.084568195 0.07759093 0.07914572
-0.09171077 -0.0057182736 -0.26101547 0.20911625 -0.112877555 0.17110005 0.16253021 -0.13477974
0.26361072 0.1555512 0.22826639 -0.24140799 -0.12698206 0.117500596 -0.08623933 -0.09232051
0.11282822 -0.02916941 0.08886369 -0.12553847 0.15426251 0.17953068 0.034173865 0.094286256
0.05986773 -0.1156524 0.073570944 -0.07482229 0.12733324 0.1429349 0.052098904 -0.117426395
0.14987282 0.18047431 0.074123695 0.21989845 -0.080306835 0.055938073 -0.03916662 0.11955969
-0.14731374 0.15863638 -0.12645496 0.09876809 -0.04758561 -0.11314689 0.042291157 -0.09765681
0.16819376 -0.044515617 0.093207255 -0.059776742 0.07385125 -0.18482259 -0.13155024 -0.24303067
0.02899004 -0.12716892 0.020297218 -0.12746048 -0.1584453 0.16123192 0.08829543 0.11180027
-0.05466754 -0.08833198 0.07592882 -0.08887308 -0.11498472 -0.015845168 -0.089764975 -0.1051575
00000000: d4e6 17bd 1daa a138 1472 97be 3b2b c83d
00000010: 879e 033e 93e7 32be c3a1 41be f3c1 163e
00000020: eb59 2ebd 204b 153e d364 f93d a4f2 433d
00000030: 2d63 0f3e 64e8 20be 288f 213e 31cb 10be
00000040: fede bbbd 827a 82bd c02d 5e3e 0811 f93d
00000050: 4a56 ec3d f7b2 2a3e 95ac 1abe 92c8 e5bd
00000060: 1e2b f4bd b75d 63bd ac09 4cbe 7651 9a3d
00000070: d34e 39be 13ea 93bd 40db 90bd 0bdc 63bd
00000080: e45c d33d 8973 6dbe 0a4f 3d3e 6d8a cf3d
00000090: 1d5f e3bd 1732 adbd fee7 9e3d 2717 a23d
000000a0: dbd2 bbbd 5b60 bbbb d2a3 85be 9222 563e
000000b0: 592c e7bd da34 2f3e 526e 263e b303 0abe
000000c0: fcf7 863e d048 1f3e aabe 693e a833 77be
000000d0: 9607 02be 27a4 f03d 3f9e b0bd 8912 bdbd
000000e0: 7b12 e73d b0f4 eebc 2bfe b53d 288d 00be
000000f0: fef6 1d3e e4d6 373e e5f9 0b3d 2719 c13d
00000100: dd37 753d 2adb ecbd 5dac 963d 6e3c 99bd
00000110: a563 023e 875d 123e a965 553d 407d f0bd
00000120: 4378 193e 42ce 383e 2ace 973d 0f2d 613e
00000130: e977 a4bd 521f 653d 2d6d 20bd b6db f43d
00000140: 6ad9 16be 9371 223e 697d 01be ed46 ca3d
00000150: 21e9 42bd 8fb9 e7bd 7e39 2d3d 4b00 c8bd
00000160: fc3a 2c3e 0256 36bd 72e3 be3d 75d8 74bd
00000170: 533f 973d 2242 3dbe 1bb5 06be 08dd 78be
00000180: 857c ed3c 9238 02be 5a46 a63c 0085 02be
00000190: 7c3f 22be fb19 253e 3cd4 b43d 8af7 e43d
000001a0: 12eb 5fbd 66e7 b4bd 9280 9b3d 1703 b6bd
000001b0: 1c7d ebbd bacd 81bc b3d6 b7bd d15c d7bd

exp_avg f4 [16, 1432]
5.4698544e-06 -1.49603e-05 -9.205101e-06 6.3458424e-06 -8.876305e-07 -3.0048337e-05 5.1569746e-06 6.3457237e-06
3.2194017e-05 6.3441157e-06 2.5091233e-05 1.8709155e-05 5.5311342e-05 2.0736404e-06 5.268615e-05 5.067585e-05
3.4459135e-06 4.628586e-05 3.6847356e-05 -2.0696696e-05 6.344071e-06 6.343648e-06 1.8665958e-05 6.344749e-06
-8.045665e-06 4.353437e-05 2.4556964e-05 3.0690942e-05 8.075945e-05 7.37238e-05 6.344215e-06 -2.064407e-06
6.383348e-05 3.9383238e-05 6.3453476e-06 3.242617e-05 -3.816877e-05 -2.3041598e-06 -5.8018313e-06 4.7822596e-05
-8.11198e-05 -2.5499172e-05 -3.3388862e-06 3.3461838e-05 6.346007e-06 -0.00011695335 6.3440216e-06 6.3439534e-06
-3.386582e-05 -6.175528e-06 -2.5784835e-05 1.3528563e-05 -2.8250795e-05 6.343931e-06 1.3163315e-05 -8.01035e-06
-3.3879238e-05 1.8704392e-05 2.7706752e-05 1.7154283e-05 -4.652977e-06 6.344177e-06 2.8713806e-05 8.637658e-06
-4.0106356e-06 2.5006813e-05 4.0917683e-05 6.344155e-06 4.0159863e-05 -1.6174083e-05 5.451035e-05 -6.3381167e-06
-5.2331594e-05 6.345379e-06 6.34473e-06 1.6384975e-05 0.00013272557 6.0405884e-05 4.687589e-05 6.3454927e-06
-2.2500371e-05 -3.651727e-05 -7.588757e-05 3.4460943e-05 -5.0051884e-05 1.6551052e-05 7.794987e-05 6.344874e-06
6.2225654e-06 -8.47507e-06 -2.4755298e-05 -1.785766e-05 2.7875081e-05 -1.2557978e-05 9.752351e-05 6.3450793e-06
5.9934255e-06 3.14403e-05 -9.196091e-05 -2.9041135e-05 -0.00024081949 -9.721523e-06 -2.3425315e-05 -3.7815706e-05
1.5041619e-05 2.1510981e-05 -0.00013483659 1.0396443e-05 6.345295e-06 1.7011766e-05 -0.000114411756 -5.690339e-05
2.4124323e-05 -0.000100055724 6.3440225e-06 -4.9080067e-05 6.344437e-06 -0.00010996194 -9.477382e-06 1.4207324e-05
5.8980377e-06 -1.5403502e-05 0.00010841551 -1.9462706e-05 2.6017751e-05 -0.00015357923 -6.6767057e-06 6.0348546e-05
6.3441403e-06 7.11304e-05 1.5315109e-05 -2.0116472e-06 -9.2308055e-06 6.3440375e-06 -8.703497e-06 1.2926657e-05
-1.273505e-05 6.3456105e-06 2.493702e-06 5.092502e-06 3.1901018e-05 -1.3399422e-05 6.345255e-06 3.9244493e-05
2.7447055e-05 6.3455436e-06 3.2438187e-05 -0.00012058302 1.6405567e-05 2.546609e-05 -2.2537739e-05 -4.120255e-05
-3.617448e-05 6.3436505e-06 -2.3535658e-05 1.8091088e-05 1.8640949e-05 3.9093244e-05 5.541732e-05 -0.000107746964
6.974141e-05 -7.723826e-05 2.6368728e-06 -0.00011813228 4.4647804e-05 -1.6105427e-05 6.3436487e-06 6.3438542e-06
2.8214903e-05 5.967042e-06 6.3446164e-06 8.962023e-06 -8.751312e-05 0.0002103381 6.7047346e-05 8.035349e-05
4.1723324e-05 2.5538746e-05 3.9514066e-06 8.888625e-05 2.8130293e-05 3.7063965e-05 6.3442835e-06 9.708118e-06
-3.4418266e-05 6.3445473e-06 2.6011077e-05 -7.359756e-05 2.7213131e-05 6.345255e-06 -2.3910137e-05 6.395417e-05
-5.0722083e-05 2.013275e-05 1.9019208e-05 7.8574685e-06 1.761568e-05 6.343702e-06 9.517595e-06 1.1696491e-05
5.7085867e-06 6.3453504e-06 2.626102e-06 -1.839833e-05 -0.0002541891 9.262491e-06 2.3826975e-05 1.2130094e-05
-3.391986e-07 -3.622638e-05 6.3454113e-06 3.2774384e-05 6.343934e-06 -8.699455e-05 -2.6049742e-05 2.4461748e-05
-5.370553e-05 2.0376876e-05 -5.3256204e-06 -1.4551989e-05 6.343647e-06 -0.00017903635 -9.798891e-05 6.343823e-06
2.8564673e-05 6.3436637e-06 -1.5541158e-05 4.028627e-05 6.057527e-05 -9.5537674e-05 6.343677e-06 1.4175349e-05
7.257409e-05 -6.3830294e-06 -2.987709e-05 7.8173e-05 4.2147996e-05 2.9723946e-05 6.3438547e-06 -8.019317e-06
6.0605675e-05 -7.055746e-06 9.8651e-06 -3.3699955e-05 4.64091e-05 6.3450398e-06 -4.6515997e-05 5.896734e-05
-6.567036e-05 6.3441403e-06 6.3446982e-06 -4.5863044e-06 -1.4590141e-05 6.188867e-05 5.050354e-05 -6.5072936e-06
00000000: b189 b736 00fe 7ab7 9c6f 1ab7 5fee d436
00000010: 8145 6eb5 5010 fcb7 130a ad36 5aed d436
00000020: 1008 0738 8adf d436 037b d237 9bf1 9c37
00000030: 1afe 6738 df28 0b36 53fb 5c38 c88c 5438
00000040: 5840 6736 1023 4238 8c8c 1a38 d19d adb7
00000050: 28df d436 85db d436 d794 9c37 fbe4 d436
00000060: defb 06b7 ad98 3638 aeff cd37 26ba 0038
00000070: 665d a938 2a9c 9a38 64e0 d436 3e8a 0ab6
00000080: 57de 8538 6e2f 2538 1fea d436 5601 0838
00000090: 6817 20b8 2aa1 1ab6 5aad c2b6 1f95 4838
000000a0: dc1e aab8 0ee7 d5b7 a111 60b6 6059 0c38
000000b0: c9ef d436 da44 f5b8 bbde d436 25de d436
000000c0: 260b 0eb8 6237 cfb6 834c d8b7 bcf8 6237
000000d0: 1ffc ecb7 f4dd d436 02d8 5c37 3164 06b7
000000e0: 8e19 0eb8 60e7 9c37 cc6b e837 8be6 8f37
000000f0: c520 9cb6 11e0 d436 6ede f037 75ea 1037
00000100: 1993 86b6 b9c5 d137 079f 2b38 e0df d436
00000110: 5371 2838 94ad 87b7 0ba2 6438 02ac d4b6
00000120: 9f7e 5bb8 64ea d436 d1e4 d436 7772 8937
00000130: 402c 0b39 535c 7d38 9b9c 4438 5eeb d436
00000140: 2ebf bcb7 1f2a 19b8 d425 9fb8 288a 1038
00000150: cdee 51b8 1dd7 8a37 0579 a338 0de6 d436
00000160: 6ecb d036 2630 0eb7 99a9 cfb7 08cd 95b7
00000170: 48d5 e937 1bb0 52b7 8985 cc38 d1e7 d436
00000180: 221b c936 c4de 0338 23db c0b8 5d9d f3b7
00000190: 7d84 7cb9 a019 23b7 7b81 c4b7 4e9c 1eb8
000001a0: 435b 7c37 7b72 b437 ec62 0db9 626c 2e37
000001b0: abe9 d436 7db4 8e37 58f0 efb8 8dab 6eb8
000001c0: 975e ca37 02d5 d1b8 bdde d436 52db 4db8
000001d0: 4de2 d436 5e9b e6b8 0c01 1fb7 fe5b 6e37
000001e0: c2e7 c536 c536 81b7 225d e338 d843 a3b7
000001f0: b240 da37 1c0a 21b9 7708 e0b6 c21e 7d38
00000200: c0df d436 d82b 9538 f278 8037 d6ff 06b6
00000210: 02de 1ab7 dede d436 3c05 12b7 92df 5837
00000220: a0a8 55b7 61ec d436 7959 2736 42e0 aa36
00000230: 75cd 0538 14ce 60b7 53e9 d436 749a 2438
00000240: 1a3e e637 ceeb d436 3d0e 0838 84e1 fcb8
00000250: b09e 8937 03a0 d537 6d0f bdb7 e7d0 2cb8
00000260: 0dba 17b8 8bdb d436 716e c5b7 51c2 9737
00000270: 225f 9c37 0df8 2338 e56f 6838 36f6 e1b8
00000280: 2242 9238 fafa a1b8 21f5 3036 c9bd f7b8
00000290: 3744 3b38 241a 87b7 87db d436 4bdd d436
000002a0: 0baf ec37 8038 c836 d7e3 d436 985b 1637
000002b0: 4087 b7b8 348e 5c39 c59b 8c38 7483 a838
000002c0: 1400 2f38 0a3c d637 5396 8436 7168 ba38
000002d0: 58f9 eb37 2175 1b38 fbe0 d436 0de0 2237
000002e0: 555c 10b8 3fe3 d436 5d32 da37 6458 9ab8
000002f0: c147 e437 53e9 d436 a192 c8b7 221f 8638
00000300: 6cbe 54b8 c0e2 a837 708b 9f37 92d3 0337
00000310: 62c5 9337 fcdb d436 c2ad 1f37 0c3c 4437
00000320: 638c bf36 25ea d436 173c 3036 1d56 9ab7
00000330: af44 85b9 1966 1b37 0ae0 c737 5b82 4b37
00000340: 1a1b b6b4 c8f1 17b8 abea d436 3a77 0938
00000350: fadd d436 d870 b6b8 6585 dab7 3433 cd37
00000360: e041 61b8 02ef aa37 bbb2 b2b6 5124 74b7
00000370: 83db d436 b4bb 3bb9 657f cdb8 06dd d436
00000380: 2b9e ef37 a8db d436 625e 82b7 0ef9 2838
00000390: 3312 7e38 665b c8b8 c5db d436 a9d2 6d37
000003a0: eb32 9838 ce2d d6b6 90a0 fab7 cff0 a338
000003b0: 11c8 3038 b057 f937 4cdd d436 b48a 06b7
000003c0: d932 7e38 66c0 ecb6 4882 2537 0d59 0db8
000003d0: 64a7 4238 7ae7 d436 2c1a 43b8 b353 7738
000003e0: 82b8 89b8 c0df d436 8be4 d436 0ee4 99b6
000003f0: 2ec8 74b7 3aca 8138 c3d3 5338 3a59 dab6

exp_avg_sq f4 [16, 1432]
3.882637e-07 7.889415e-08 2.5351802e-08 2.2825193e-09 1.0131134e-08 4.5636288e-08 3.0644827e-09 2.2779896e-09
1.1440423e-08 2.2734894e-09 4.3333028e-08 2.8768431e-08 4.0863767e-08 3.2315621e-09 4.1201944e-09 2.1485322e-08
1.1095419e-09 8.399825e-08 6.7373893e-09 7.525317e-08 2.271466e-09 2.2703581e-09 5.248609e-09 2.2740358e-09
1.0455454e-08 4.786257e-09 4.8384827e-08 2.7145735e-08 3.795582e-08 3.760129e-08 2.2740394e-09 2.0596431e-08
1.4153268e-08 1.3792301e-07 2.2800062e-09 3.984637e-09 2.3885482e-08 2.2864296e-07 2.096127e-08 9.183775e-08
3.3761122e-08 1.7714946e-08 4.4788642e-08 9.527977e-09 2.2833524e-09 3.6880845e-08 2.2712872e-09 2.2725624e-09
1.898593e-08 1.0163784e-08 2.2122961e-07 1.4482665e-08 4.3312147e-07 2.2724367e-09 1.4668588e-08 8.893388e-09
4.3985327e-08 8.913503e-09 3.2139287e-08 8.150985e-08 4.776994e-09 2.2718403e-09 1.9761451e-08 5.0944786e-09
4.549764e-09 1.4727262e-07 2.0826803e-08 2.2737143e-09 2.5564496e-08 2.1071498e-09 8.778687e-08 1.8326526e-08
3.3886316e-08 2.2801636e-09 2.2768005e-09 7.99607e-08 2.7568415e-08 8.8575845e-08 1.0357042e-07 2.2770348e-09
2.4258644e-09 2.782922e-07 1.0826337e-07 1.5686364e-08 4.2728907e-08 6.555633e-08 1.9947796e-08 2.277555e-09
7.863758e-09 1.7122076e-08 1.3385564e-08 1.4430348e-07 6.050783e-08 2.671083e-08 3.5203456e-07 2.2753566e-09
5.836181e-09 3.367078e-08 1.7188562e-08 2.8258466e-08 1.7518235e-07 1.1833145e-07 3.095688e-09 3.0397636e-08
8.739737e-09 2.1515115e-08 3.1637306e-08 1.0763406e-08 2.2797269e-09 2.7518864e-08 1.5268473e-08 3.882025e-08
6.466026e-09 4.284236e-08 2.2712983e-09 6.3614976e-08 2.272818e-09 3.302432e-08 8.185046e-09 5.7041408e-08
1.8169972e-08 1.9013159e-08 4.3684597e-08 2.5968976e-09 5.9472022e-08 8.59403e-09 4.1373138e-08 3.185603e-07
2.2717124e-09 6.5138266e-08 7.852238e-09 1.3746353e-08 1.9385846e-08 2.2730553e-09 3.2015535e-08 5.7260504e-08
1.0342104e-08 2.28135e-09 4.099144e-08 4.676281e-09 5.700853e-09 6.705192e-08 2.279526e-09 8.2136555e-09
1.0594153e-09 2.2810023e-09 2.445213e-08 1.009759e-07 1.6540575e-07 9.056744e-09 5.2498663e-08 4.27594e-08
1.2158873e-07 2.2703175e-09 3.281623e-08 1.8400353e-08 4.305185e-08 8.1850864e-08 4.037414e-08 3.4853937e-08
1.9403794e-08 9.794293e-09 1.0893299e-08 7.768635e-08 1.5277351e-08 1.4714496e-08 2.270497e-09 2.2719682e-09
7.373935e-09 6.7292065e-09 2.2761946e-09 4.0517154e-09 8.7772364e-08 1.1133039e-07 4.4166594e-08 1.2239882e-07
1.2324754e-08 5.9686647e-09 2.3724176e-09 5.6538596e-08 6.870935e-08 2.650326e-08 2.274412e-09 6.9045725e-09
1.737389e-08 2.2732454e-09 1.7040451e-09 1.666246e-08 2.140935e-08 2.2795275e-09 1.0777873e-07 3.7842904e-07
2.0999545e-08 8.7900965e-08 4.8624846e-09 9.350617e-09 4.276287e-09 2.270328e-09 7.732256e-09 1.0767664e-07
7.255552e-08 2.2800257e-09 4.586512e-08 3.4889766e-08 7.103691e-08 2.354699e-08 1.06560876e-07 6.325817e-09
1.8941382e-08 2.044594e-08 2.28033e-09 1.5941618e-08 2.2709836e-09 8.3601385e-08 1.7905844e-08 1.18010384e-07
4.437399e-08 1.907554e-08 2.0711378e-08 7.4258054e-08 2.2703504e-09 3.1803626e-08 1.2076262e-07 2.2706397e-09
3.336607e-09 2.2706634e-09 1.3744935e-07 5.5377094e-09 1.2074279e-08 1.8066302e-07 2.2702975e-09 7.151523e-08
6.442382e-08 1.61035e-07 2.4075257e-09 2.3070385e-08 2.6007e-08 2.8823873e-08 2.2707363e-09 9.165399e-09
2.306171e-08 5.4404854e-09 7.497288e-09 9.480885e-08 5.9418306e-09 2.2784197e-09 4.571772e-09 4.3834284e-08
4.9240192e-08 2.2717077e-09 2.273839e-09 1.2251784e-08 2.2232664e-08 3.050802e-08 3.4632087e-08 7.914758e-08
00000000: 8e72 d034 856c a933 34c5 d932 81da 1c31
00000010: 330d 2e32 a101 4433 f396 5231 d18a 1c31
00000020: 838b 4432 a63b 1c31 2b1d 3a33 731e f732
00000030: 3082 2f33 3e12 5e31 9d91 8d31 b98e b832
00000040: 897e 9830 8762 b433 b47e e731 de9a a133
00000050: 0d18 1c31 9004 1c31 4157 b431 4345 1c31
00000060: 939f 3332 5d74 a431 aecf 4f33 1a2e e932
00000070: de04 2333 0e7f 2133 5345 1c31 08ec b032
00000080: bb26 7332 fd17 1434 4bae 1c31 3de9 8831
00000090: bb2c cd32 e680 7534 520e b432 5638 c533
000000a0: bf00 1133 942b 9832 a25d 4033 7cb0 2332
000000b0: 29e9 1c31 eb66 1e33 e814 1c31 572b 1c31
000000c0: 8016 a332 cb9c 2e32 228b 6d34 6fcf 7832
000000d0: c387 e834 2129 1c31 2201 7c32 89c9 1832
000000e0: 61ea 3c33 0022 1932 8509 0a33 840a af33
000000f0: e222 a431 a31e 1c31 e4bf a932 820b af31
00000100: 2654 9c31 fd21 1e34 a0e6 b232 9b3f 1c31
00000110: ec98 db32 5fcd 1031 5885 bc33 756c 9d32
00000120: 668a 1133 10b1 1c31 e675 1c31 dcb6 ab33
00000130: 96cf ec32 1637 be33 716a de33 057a 1c31
00000140: 42b4 2631 3068 9534 6b7e e833 aebe 8632
00000150: ee84 3733 f9c7 8c33 ab59 ab32 2c83 1c31
00000160: 2c19 0732 d813 9332 55f6 6532 d7f1 1a34
00000170: 88f0 8133 bd71 e532 43ff bc34 7f5c 1c31
00000180: 9787 c831 6a9d 1033 0ca6 9332 06bd f232
00000190: c219 3c34 671d fe33 ebbb 5431 8e8e 0233
000001a0: c525 1632 3dd0 b832 96e1 0733 f6e9 3832
000001b0: 61a9 1c31 9f62 ec32 ba27 8332 51bb 2633
000001c0: c42b de31 ac01 3833 1a15 1c31 b49c 8833
000001d0: d62f 1c31 a0d6 0d33 379e 0c32 b1fd 7433
000001e0: 3114 9c32 6152 a332 b99f 3b33 1b75 3231
000001f0: 2e6e 7f33 f2a4 1332 3fb2 3133 9806 ab34
00000200: 631c 1c31 24e2 8b33 82e6 0632 1a29 6c32
00000210: ed85 a632 0334 1c31 7481 0933 97ee 7533
00000220: 0ead 3132 efc5 1c31 910e 3033 01ad a031
00000230: 3ce1 c331 2ffe 8f33 d8a5 1c31 0a1c 0d32
00000240: dd9a 9130 d1bf 1c31 cd0a d232 17d8 d833
00000250: 639a 3134 fb97 1b32 e47a 6133 75a6 3733
00000260: 0e8e 0234 d903 1c31 d4f1 0c33 ce0e 9e32
00000270: 02e8 3833 fdc5 af33 d667 2d33 4fb2 1533
00000280: 65ad a632 c243 2832 3c25 3b32 86d4 a633
00000290: 403b 8332 0acb 7c32 0107 1c31 e320 1c31
000002a0: d15d fd31 ba36 e731 3d6b 1c31 4437 8b31
000002b0: 5e7d bc33 8714 ef33 afb1 3d33 bb6c 0334
000002c0: d7bc 5332 ee14 cd31 0308 2331 d8d4 7233
000002d0: 5d8d 9333 49a9 e332 e14b 1c31 433d ed31
000002e0: 973d 9532 5b37 1c31 c233 ea30 2321 8f32
000002f0: a9e7 b732 dfa5 1c31 fc73 e733 e42a cb34
00000300: 7d62 b432 11c4 bc33 de12 a731 73a4 2032
00000310: 9eee 9231 0804 1c31 d2d6 0432 dc3b e733
00000320: d2cf 9b33 a3ae 1c31 3cfd 4433 b4d9 1533
00000330: f48c 9833 6144 ca32 76d6 e433 7a5a d931
00000340: 8ab4 a232 19a1 af32 fdb3 1c31 fdef 8832
00000350: 910f 1c31 5988 b333 5ecf 9932 e56c fd33
00000360: b895 3e33 8edb a332 cde8 b132 cc77 9f33
00000370: 6d04 1c31 7598 0833 faaa 0134 8409 1c31
00000380: 364a 6531 ef09 1c31 ca95 1334 3546 be31
00000390: 3e6f 4f32 46fc 4134 7f03 1c31 ea93 9933
000003a0: 5f59 8a33 f7e8 2c34 a471 2531 502c c632
000003b0: ff65 df32 5e98 f732 370b 1c31 da75 1d32
000003c0: 3d19 c632 04ef ba31 6ccd 0032 b799 cb33
000003d0: e528 cc31 6292 1c31 bb15 9d31 4e44 3c33
000003e0: 2a7c 5333 4e1c 1c31 cc41 1c31 ea7b 5232
000003f0: 25fa be32 ec07 0333 62be 1433 d8f7 a933

exp_avg f4 [16]
1.2454363e-05 1.1104693e-05 -3.7273353e-06 -3.1875956e-05 2.8923587e-06 -6.3314965e-06 1.0453649e-05 -9.073321e-06
2.4474334e-06 -8.8331835e-06 1.594077e-06 2.7007434e-06 -1.2852472e-05 -2.1958467e-05 -3.868744e-06 8.097591e-06
00000000: 15f3 5037 4b4e 3a37 2223 7ab6 8cb2 05b8
00000010: 581a 4236 2473 d4b6 1562 2f37 9e39 18b7
00000020: 963e 2436 3c32 14b7 12f4 d535 6b3e 3536
00000030: f2a0 57b7 7333 b8b7 42d0 81b6 e3da 0737

exp_avg_sq f4 [16]
5.820035e-09 2.3099043e-09 5.2241766e-09 2.9147609e-09 2.988284e-09 2.3087663e-09 1.6383773e-09 2.2881628e-09
5.073306e-09 2.172042e-09 4.5601727e-09 4.0476107e-09 5.3154063e-09 9.069456e-09 6.652653e-09 1.9105446e-09
00000000: 92f9 c731 44bc 1e31 5880 b331 044d 4831
00000010: 735a 4d31 3fa8 1e31 472d e130 c93d 1d31
00000020: 4651 ae31 f842 1531 b4af 9c31 2913 8b31
00000030: cfa2 b631 e4cf 1b32 5b95 e431 a84a 0331

exp_avg f4 [16, 1432]
7.501701e-06 2.9364228e-05 -6.158338e-05 8.907705e-06 -1.3707323e-05 -0.00024021202 6.3293696e-06 8.911794e-06
5.6303976e-05 8.915863e-06 3.9298386e-05 5.488669e-05 -1.7554208e-05 2.6715416e-06 4.888219e-05 7.151084e-05
1.50374735e-05 -1.0535683e-05 -1.3000938e-05 -7.6097305e-05 8.909429e-06 8.912326e-06 2.8015209e-05 8.919504e-06
1.033897e-05 4.681749e-07 -7.769467e-05 1.4848767e-05 2.032151e-05 -3.3630695e-05 8.91611e-06 2.3696528e-05
8.449495e-05 3.3874298e-05 8.906826e-06 4.4643613e-05 -4.8275753e-05 -0.00015131112 8.9961515e-07 0.000111924186
-0.000105732084 -2.1109629e-05 1.1146209e-05 -3.25666e-05 8.909601e-06 -0.00013713157 8.90978e-06 8.914539e-06
-3.6749687e-05 5.6213714e-05 -2.46674e-05 2.2295832e-05 9.121224e-05 8.911614e-06 -5.185845e-05 2.697054e-05
-0.00012632475 1.537569e-05 4.696086e-05 1.08940785e-05 9.199018e-06 8.9180885e-06 2.8115157e-05 4.6931575e-05
-5.455557e-06 2.6280472e-05 4.562905e-05 8.9114055e-06 2.8359018e-05 1.3055689e-05 -9.186208e-07 -3.6417034e-05
-5.85158e-05 8.90757e-06 8.907826e-06 2.5504778e-05 -0.00013811458 -3.7565176e-05 4.4407698e-05 8.915914e-06
-3.0481624e-06 6.683701e-05 -0.00011477104 1.7640581e-05 -7.5431766e-05 2.7288568e-05 4.7713955e-05 8.90638e-06
0.00012298184 -1.2116286e-05 -2.597797e-05 -3.0595904e-05 -3.5825724e-05 1.4007348e-05 -0.00022109268 8.919406e-06
3.0215955e-05 -5.2656546e-06 -8.084724e-05 1.5435568e-05 -0.00017891079 -3.0327628e-05 -1.0588282e-05 -6.222129e-05
-4.8986976e-06 0.00016156067 -0.00017580489 -9.982171e-06 8.911239e-06 2.3617993e-05 -0.00024917442 -8.7534145e-06
-1.9743753e-05 8.620743e-05 8.906549e-06 -1.8176335e-05 8.911667e-06 -0.00014151732 -5.2818123e-06 4.5307148e-05
-4.8321444e-06 -1.0460016e-05 4.066989e-05 8.672731e-06 0.000132038 -0.00022255408 -0.00015658858 6.505935e-05
8.907043e-06 0.0001115882 2.5861174e-05 -0.00011218576 -4.080536e-05 8.90638e-06 -4.5541387e-06 1.3270269e-05
2.5190748e-05 8.906985e-06 -2.3052173e-05 4.469105e-05 8.78281e-06 -0.00013289669 8.910985e-06 -6.318171e-05
1.5067273e-05 8.909226e-06 -3.913219e-05 -5.5895012e-05 3.086111e-05 5.0119266e-05 -6.7288616e-05 2.6601196e-05
-1.4790599e-05 8.916e-06 -8.865361e-06 3.5232904e-06 3.1824504e-05 4.8256315e-05 5.7280624e-05 -6.468304e-05
9.728914e-05 -4.3242173e-05 -6.370764e-06 -0.00040245085 8.50498e-06 4.5346624e-05 8.911442e-06 8.91288e-06
3.7312362e-05 -1.1271786e-06 8.911651e-06 3.2263284e-05 -1.5804813e-05 3.6732963e-05 0.00015024647 0.00013762995
7.404252e-05 3.951724e-05 -1.2074263e-05 8.31016e-05 5.2072053e-05 1.3279285e-05 8.910034e-06 1.7735474e-05
6.2887148e-06 8.9140485e-06 1.9175473e-05 -2.3033055e-05 -7.3052843e-06 8.91548e-06 -6.021156e-06 -8.491645e-05
-1.7305123e-05 0.00013310116 -9.200698e-07 7.1662e-06 2.4681969e-05 8.907236e-06 -1.8653725e-06 4.8108614e-05
3.465632e-05 8.911604e-06 -3.3222964e-06 -2.3270295e-05 -0.000469064 4.102686e-05 -1.4271386e-05 1.9050065e-06
-1.9919986e-05 -5.9160775e-05 8.9090445e-06 -4.3713964e-05 8.914652e-06 -6.617257e-06 -4.1324773e-05 6.4780026e-05
-3.542969e-05 3.021357e-05 2.644831e-05 2.4436227e-05 8.914331e-06 -0.0001236245 -8.136125e-05 8.909234e-06
2.8173712e-05 8.913545e-06 2.473796e-05 4.7987105e-05 0.00016788907 -0.00011964225 8.917684e-06 1.6582326e-05
0.00014645612 -0.00012781908 -4.3138003e-05 0.00010938103 8.2423445e-05 8.436287e-05 8.914248e-06 -6.785697e-06
9.691046e-05 4.5114716e-06 1.3946177e-05 -5.8368616e-05 4.696944e-05 8.90781e-06 1.0687074e-05 3.4237141e-06
-8.255889e-05 8.913814e-06 8.9069845e-06 9.69748e-06 9.469086e-06 8.117621e-05 5.7299443e-05 -6.647245e-05
00000000: 1fb7 fb36 3353 f637 5326 81b8 4d72 1537
00000010: 81f8 65b7 6ce1 7bb9 df60 d436 dd83 1537
00000020: ef27 6c38 5795 1537 52d4 2438 2236 6638
00000030: 6041 93b7 bc48 3336 da06 4d38 17f8 9538
00000040: 7549 7c37 6ac2 30b7 9b1e 5ab7 6e96 9fb8
00000050: b579 1537 2686 1537 3402 eb37 faa4 1537
00000060: 8a75 2d37 7859 fb34 02f0 a2b8 f81e 7937
00000070: 1c78 aa37 af0e 0db8 6796 1537 e8c7 c637
00000080: e232 b138 4014 0e38 876e 1537 b73f 3b38
00000090: b27b 4ab8 45a9 1eb9 157d 7135 d7b8 ea38
000000a0: 7bbc ddb8 9514 b1b7 9a00 3b37 1f98 08b8
000000b0: 727a 1537 faca 0fb9 377b 1537 a78f 1537
000000c0: ad23 1ab8 04c7 6b38 d7ec ceb7 ef07 bb37
000000d0: 3349 bf38 1783 1537 9682 59b8 cb3e e237
000000e0: 0b76 04b9 0bfb 8037 d7f7 4438 b6c5 3637
000000f0: 7b55 1a37 e69e 1537 d7d8 eb37 65d8 4438
00000100: e10e b7b6 e274 dc37 d261 3f38 3282 1537
00000110: 87e4 ed37 c209 5b37 2497 76b5 7ebe 18b8
00000120: dd6e 75b8 b971 1537 d272 1537 18f3 d537
00000130: dad2 10b9 4d8f 1db8 6742 3a38 8f95 1537
00000140: 088f 4cb6 d92a 8c38 3cb1 f0b8 dcfa 9337
00000150: 1f31 9eb8 c1e9 e437 7820 4838 9c6c 1537
00000160: b0f4 0039 0d47 4bb7 44eb d9b7 1a54 00b8
00000170: 9443 16b8 1a01 6b37 1dd5 67b9 8fa4 1537
00000180: 4578 fd37 a1af b0b6 888c a9b8 a17b 8137
00000190: 009a 3bb9 1668 feb7 53a4 31b7 cd7c 82b8
000001a0: 7e5f a4b6 9d68 2939 4458 38b9 1979 27b7
000001b0: 7b81 1537 411f c637 a0a3 82b9 a1db 12b7
000001c0: 639f a5b7 43ca b438 566d 1537 6279 98b7
000001d0: 5183 1537 4464 14b9 6c3a b1b6 2e08 3e38
000001e0: ce23 a2b6 6d7d 2fb7 f694 2a38 1981 1137
000001f0: ae73 0a39 685d 69b9 ed31 24b9 7970 8838
00000200: 756f 1537 7504 ea38 73f0 d837 4545 ebb8
00000210: 6c26 2bb8 9c6c 1537 c1cf 98b6 5fa3 5e37
00000220: b850 d337 366f 1537 2a60 c1b7 a672 3b38
00000230: e259 1337 2f5a 0bb9 6480 1537 6c80 84b8
00000240: 72c9 7c37 d678 1537 de21 24b8 d070 6ab8
00000250: dd70 0138 2737 5238 4d1d 8db8 a225 df37
00000260: 2425 78b7 ee95 1537 70bc 14b7 ab71 6c36
00000270: 4d7b 0538 d366 4a38 9a40 7038 71a6 87b8
00000280: b607 cc38 ee5e 35b8 72c4 d5b6 0a00 d3b9
00000290: 9cb0 0e37 9132 3e38 5a82 1537 8788 1537
000002a0: d87f 1c38 9049 97b5 4083 1537 7052 0738
000002b0: 9494 84b7 b811 1a38 7b8b 1d39 c250 1039
000002c0: 4647 9b38 50bf 2538 9192 4ab7 d546 ae38
000002d0: f167 5a38 18ca 5e37 4e7c 1537 a4c6 9437
000002e0: a603 d336 8c8d 1537 04db a037 1c37 c1b7
000002f0: ea1f f5b6 b293 1537 5609 cab6 2c15 b2b8
00000300: 782a 91b7 1291 0b39 b7fa 76b5 3075 f036
00000310: 200c cf37 4a70 1537 b65d fab5 3bc8 4938
00000320: f15b 1138 0c83 1537 9ef4 5eb6 9434 c3b7
00000330: b4ec f5b9 4114 2c38 236f 6fb7 86af ff35
00000340: d819 a7b7 6623 78b8 0e78 1537 8359 37b8
00000350: 2490 1537 ce09 deb6 2354 2db8 83da 8738
00000360: 579a 14b8 2673 fd37 50dd dd37 66fc cc37
00000370: c38e 1537 33a1 01b9 7da0 aab8 de78 1537
00000380: 9656 ec37 628b 1537 5d84 cf37 c345 4938
00000390: 610b 3039 72e8 fab8 299d 1537 461a 8b37
000003a0: 0492 1939 2c07 06b9 14ef 34b8 7e63 e538
000003b0: c0da ac38 f9eb b038 678e 1537 b2b0 e3b6
000003c0: 683c cb38 3f61 9736 60fa 6937 d3d0 74b8
000003d0: 0d01 4538 c172 1537 a24c 3337 f6c2 6536
000003e0: 7723 adb8 8a8c 1537 356f 1537 5cb2 2237
000003f0: 6add 1e37 253d aa38 cf54 7038 2067 8bb8

exp_avg_sq f4 [16, 1432]
1.527068e-08 9.7591894e-08 4.1968008e-08 1.2590619e-09 1.4921488e-08 2.8800625e-07 2.7289115e-09 1.2616042e-09
1.2015314e-08 1.2640833e-09 4.8451238e-08 8.268652e-08 9.787298e-08 5.3779967e-09 3.4961182e-08 2.142522e-08
1.7082757e-09 7.088138e-08 1.2331618e-08 3.6224137e-08 1.2601652e-09 1.2619297e-09 1.3992053e-08 1.2663046e-09
1.4657497e-08 3.8001557e-09 9.49888e-08 2.6403692e-08 7.098988e-08 1.2332683e-07 1.264091e-09 2.1162532e-09
2.9763887e-08 2.0345288e-07 1.258571e-09 5.799619e-09 4.768239e-08 4.506354e-07 2.123108e-08 1.6689057e-07
5.794703e-08 2.4368465e-08 5.1069886e-08 1.9981412e-08 1.2602686e-09 5.4004424e-08 1.2603789e-09 1.2632779e-09
1.3891338e-08 3.146296e-08 2.5289796e-07 9.626001e-09 4.4809659e-07 1.2614949e-09 9.094293e-09 8.3092395e-09
2.2107002e-08 1.0234839e-08 4.5893454e-08 6.8843455e-08 4.3963735e-09 1.2654409e-09 1.577258e-08 2.397918e-08
1.1336634e-08 1.4733033e-07 3.1025724e-08 1.261369e-09 1.12505045e-08 2.606042e-09 1.8945889e-07 1.6618872e-08
3.573692e-08 1.2590277e-09 1.2591342e-09 4.0079367e-08 4.0715767e-07 4.6089916e-08 1.5127593e-07 1.2641148e-09
2.5622693e-09 2.7473652e-07 7.04277e-08 1.5550873e-08 8.64042e-08 6.404169e-08 8.253042e-08 1.258286e-09
2.8366685e-08 2.418304e-08 1.6402108e-08 1.9981549e-07 5.8632175e-08 4.148564e-08 3.868086e-08 1.2662447e-09
1.30799345e-08 5.3516843e-08 3.32612e-08 1.0737553e-07 6.503068e-08 8.202592e-08 5.693696e-09 6.951653e-08
3.193333e-09 2.3438906e-07 2.6296608e-08 6.5968855e-08 1.261169e-09 2.4675133e-08 2.0573664e-08 9.2403404e-08
2.3629521e-08 6.3523046e-08 1.2583812e-09 1.2604744e-07 1.2614245e-09 5.171754e-08 2.595388e-08 4.6762274e-08
1.8415768e-08 2.7940137e-08 1.5475337e-07 1.2226784e-09 8.003356e-08 1.5008869e-08 7.879227e-08 2.437817e-08
1.2586707e-09 6.3141755e-08 6.0230314e-09 2.3198341e-08 1.6847073e-08 1.2582874e-09 1.5126467e-08 7.757983e-08
1.0903533e-08 1.2586686e-09 4.511767e-08 6.226175e-08 1.4584319e-08 8.3043574e-08 1.2611135e-09 1.3664597e-08
1.0970972e-09 1.2599664e-09 5.6077155e-08 2.0726294e-07 2.4589775e-07 1.6425261e-08 1.5430768e-07 4.3121457e-08
1.0718636e-07 1.2641681e-09 6.206415e-08 2.1530902e-08 6.899773e-08 8.3745405e-08 4.255562e-08 7.6792766e-08
5.9450297e-08 1.8865562e-08 5.91209e-09 1.16016956e-07 1.8569626e-08 3.0100022e-08 1.2613912e-09 1.2622675e-09
8.142996e-09 4.0879593e-09 1.2615179e-09 1.25580595e-08 3.936011e-08 5.792666e-08 5.1299544e-08 1.11926624e-07
2.8426813e-08 1.124527e-08 3.1106957e-09 5.4735384e-08 2.451093e-08 3.7121147e-08 1.2604509e-09 1.0726994e-08
3.574396e-08 1.2628527e-09 1.7294715e-09 2.6277844e-08 4.0944908e-08 1.2637124e-09 2.7712433e-06 7.6421664e-08
3.10955e-08 8.237565e-08 4.436851e-09 1.1636527e-08 1.3208246e-08 1.2587837e-09 8.10414e-09 1.0234536e-07
4.5354017e-08 1.2614901e-09 2.8623342e-08 5.7743787e-08 6.435037e-08 3.6154518e-08 7.622154e-08 9.998341e-09
1.8559316e-08 5.385635e-08 1.2598591e-09 2.0772342e-08 1.263216e-09 1.5837917e-07 1.5546135e-08 6.1316946e-08
5.4058454e-08 1.9639526e-08 1.7619604e-08 4.8085866e-08 1.2630231e-09 4.380811e-08 1.8657944e-07 1.2599712e-09
7.889733e-09 1.262551e-09 3.3825266e-08 5.1658295e-09 2.894389e-08 2.791486e-07 1.2651935e-09 1.4801772e-07
1.3477953e-07 3.5784234e-07 4.53367e-09 2.2492381e-08 2.6592087e-08 5.5716175e-08 1.2630996e-09 3.4061962e-08
5.1223402e-08 1.0705552e-08 1.1448241e-08 7.196761e-08 4.724283e-09 1.259176e-09 4.039541e-09 5.334693e-08
7.258313e-08 1.2627129e-09 1.258635e-09 1.2639208e-08 1.9756502e-08 6.109654e-08 1.1799309e-08 6.954191e-08
00000000: 952c 8332 b693 d133 5040 3433 4d0b ad30
00000010: b32c 8032 479f 9a34 8587 3b31 c064 ad30
00000020: e96b 4e32 fabb ad30 b318 5033 6591 b133
00000030: 3d2e d233 5cc9 b831 3a28 1633 8f0a b832
00000040: 9cc8 ea30 7337 9833 08db 5332 dc94 1b33
00000050: 1f32 ad30 3470 ad30 b361 7032 220a ae30
00000060: 5bd0 7b32 8692 8231 a5fc cb33 55ce e232
00000070: 1973 9833 d26b 0434 40bc ad30 856d 1131
00000080: 7bab ff32 b474 5a34 08fa ac30 fd45 c731
00000090: 58cb 4c33 dcee f134 a35f b632 8832 3334
000000a0: 6fe1 7833 d252 d132 ef57 5b33 97a3 ab32
000000b0: c235 ad30 7ef2 6733 a439 ad30 a49f ad30
000000c0: c0a6 6e32 e421 0733 08c6 8734 9a5f 2532
000000d0: ed91 f034 e860 ad30 203d 1c32 6cc0 0e32
000000e0: d0e5 bd32 4cd5 2f32 631c 4533 17d7 9333
000000f0: e90e 9731 beeb ad30 457c 8732 c6fa cd32
00000100: 0bc3 4232 da31 1e34 2541 0533 7a5c ad30
00000110: 3e48 4132 fa15 3331 106e 4b34 49c1 8e32
00000120: 297d 1933 190a ad30 d90d ad30 bb23 2c33
00000130: 5397 da34 66f4 4533 696e 2234 16bd ad30
00000140: eb13 3031 807f 9334 0a3e 9733 bb94 8532
00000150: 368d b933 4b87 8933 943b b133 01f0 ac30
00000160: 00ab f332 11bb cf32 9ee4 8c32 dd8c 5634
00000170: c2d2 7b33 f22d 3233 0e22 2633 0608 ae30
00000180: 29b6 6032 64da 6533 13db 0e33 5296 e633
00000190: ffa6 8b33 3a26 b033 48a2 c331 1e49 9533
000001a0: b571 5b31 60ac 7b34 dae2 e132 c3aa 8d33
000001b0: 7055 ad30 31f5 d332 f7b9 b032 4f6f c633
000001c0: def9 ca32 2a6a 8833 5af3 ac30 a857 0734
000001d0: 6e5e ad30 0920 5e33 30f1 de32 aad7 4833
000001e0: b430 9e32 0301 f032 482a 2634 2c0b a830
000001f0: eade ab33 daec 8032 8234 a933 2a68 d132
00000200: 8afd ac30 8c98 8733 25f3 ce31 b145 c732
00000210: 1bb7 9032 0df0 ac30 74ef 8132 f699 a633
00000220: 3f52 3b32 77fd ac30 67c7 4133 c2b4 8533
00000230: 838e 7a32 b055 b233 7d53 ad30 88c1 6a32
00000240: adc8 9630 202b ad30 7cd9 7033 018c 5e34
00000250: ee03 8434 8817 8d32 c6af 2534 8b34 3933
00000260: 532e e633 f6be ad30 2148 8533 f4f2 b832
00000270: e72b 9433 86d7 b333 66c6 3633 45e9 a433
00000280: 4b56 7f33 cf0d a232 4b23 cb31 ff24 f933
00000290: 0a83 9f32 5347 0133 425d ad30 177c ad30
000002a0: 46e5 0b32 1276 8c31 b761 ad30 eebe 5732
000002b0: e60c 2933 09cb 7833 7254 5c33 505c f033
000002c0: 392f f432 3831 4132 f0c3 5531 3116 6b33
000002d0: 1b8c d232 226f 1f33 2c3c ad30 d249 3832
000002e0: e684 1933 ae90 ad30 5eb2 ed30 97b9 e132
000002f0: 67db 2f33 edae ad30 99f9 3936 411d a433
00000300: dd8d 0533 7ee6 b033 f472 9831 fde9 4732
00000310: 7bea 6232 8401 ad30 623a 0b32 f5c8 db33
00000320: 45cb 4233 bd60 ad30 65df f532 f701 7833
00000330: fd30 8a33 5048 1b33 3caf a333 2bc5 2b32
00000340: 5e6c 9f32 af4f 6733 5a27 ad30 dd6e b232
00000350: 769d ad30 ef0e 2a34 508a 8532 59ad 8333
00000360: e62d 6833 c6b3 a832 eb59 9732 f886 4e33
00000370: ad96 ad30 8727 3c33 9156 4834 4c2b ad30
00000380: 6a8b 0732 1086 ad30 4647 1133 1e7f b131
00000390: 4aa0 f832 e4dd 9534 0ae3 ad30 cdee 1e34
000003a0: eab7 1034 7a1d c034 95c6 9b31 4535 c132
000003b0: 9e6c e432 954c 6f33 5e99 ad30 864b 1233
000003c0: ba00 5c33 84eb 3732 e5ad 4432 9d8c 9a33
000003d0: 3c53 a231 510f ad30 2ecc 8a31 921f 6533
000003e0: ffde 9b33 c38b ad30 48fc ac30 d323 5932
000003f0: 02b5 a932 2e34 8333 e9b5 4a32 1257 9533

exp_avg f4 [7, 16]
6.218439e-05 -0.00065142196 -0.0007230719 -0.0004644322 0.0008554341 8.79723e-06 -0.00020627865 -0.0009872922
-0.0007040218 -0.0002906446 -0.0024899573 0.00032093684 -0.0016482548 0.00048935704 -0.000543137 0.00023525277
-0.00023855512 -0.0003610611 -0.00091135514 -0.0007343646 -0.0014763017 -0.0003834761 -6.6745533e-06 -0.00026396223
-0.00013672789 1.6549036e-05 -0.00035372312 -0.00017865133 -0.00032383035 -8.519046e-05 0.00012028731 -0.00015526607
-0.00033605308 -0.00035386806 0.0005497555 0.00012958473 -0.00029369642 0.0029933662 -0.0016178138 -0.00045975597
-0.00020439361 0.00018896573 0.0012339267 -0.00080477126 -0.00048198996 -0.00031417562 -0.00029733597 0.00023798864
0.001534375 0.00032033992 3.273783e-05 -0.00044413834 0.0012550486 -0.0017913841 0.000100936 0.00047067163
-0.00014967866 -5.0757968e-05 0.0012164135 0.0011930207 0.0011213222 -0.00042314938 -0.0010447013 -0.0029394086
-0.00045777936 -0.0005940982 0.00044465734 0.00076490006 -0.00045894217 -0.0006348874 0.0013756478 -2.9817864e-05
0.001008987 -1.39888125e-05 0.0003310306 -0.0003670903 0.0004805779 0.0004522081 0.0018184802 0.0023804232
-0.00021973885 0.00077482313 0.000621456 0.0005341197 -9.0019246e-05 -8.428755e-05 -0.00039148593 -4.3374646e-07
0.000257092 4.7817124e-05 -0.00029264006 -0.00017435041 0.00017213593 -0.000115953284 -0.00046945378 -0.00012683733
-0.00029479165 0.0007462082 -0.00033261577 6.24745e-05 6.596325e-05 -0.0001715254 0.00079569174 0.0011474418
1.6638573e-05 2.0885087e-05 0.0002332221 0.00011551947 0.0002021874 -8.135382e-05 0.00034864648 -0.00010283554
00000000: fd68 8238 30c4 2aba 898c 3dba 097f f3b9
00000010: 363f 603a d197 1337 814c 58b9 0768 81ba
00000020: 1a8e 38ba a861 98b9 8d2e 23bb 6a43 a839
00000030: 410a d8ba 3248 003a 4f61 0eba 2fae 7639
00000040: a724 7ab9 cd4c bdb9 02e8 6eba 6082 40ba
00000050: 7780 c1ba 4a0d c9b9 faf5 dfb6 6964 8ab9
00000060: 9d5e 0fb9 c9d2 8a37 ea73 b9b9 5a54 3bb9
00000070: c6c7 a9b9 48a8 b2b8 c242 fc38 ebce 22b9
00000080: 4830 b0b9 5e87 b9b9 781d 103a 23e1 0739
00000090: 44fb 99b9 5a2c 443b d30c d4ba 670b f1b9
000000a0: 7e52 56b9 1a25 4639 b6bb a13a 49f7 52ba
000000b0: 99b3 fcb9 f0b7 a4b9 c2e3 9bb9 978c 7939
000000c0: 151d c93a 4cf3 a739 fa4f 0938 3ddb e8b9
000000d0: 7180 a43a e0cc eaba 9aad d338 7ac4 f639
000000e0: 0ff3 1cb9 f4e4 54b8 1070 9f3a 225f 9c3a
000000f0: 54f9 923a 26da ddb9 5cee 88ba 18a3 40bb
00000100: 1b02 f0b9 41bd 1bba e620 e939 9383 483a
00000110: 2d9e f0b9 926e 26ba 154f b43a 6021 fab7
00000120: fc3f 843a 7eb1 6ab7 2d8e ad39 0776 c0b9
00000130: 13f6 fb39 5816 ed39 125a ee3a e000 1c3b
00000140: b369 66b9 801d 4b3a 35e9 223a 2b04 0c3a
00000150: b7c8 bcb8 89c3 b0b8 5a40 cdb9 a9dd e8b4
00000160: 4eca 8639 3f8f 4838 7c6d 99b9 d5d1 36b9
00000170: 637f 3439 f22b f3b8 0521 f6b9 a3ff 04b9
00000180: 448e 9ab9 2f9d 433a ef62 aeb9 be04 8338
00000190: c055 8a38 80db 33b9 f895 503a c265 963a
000001a0: 1093 8b37 6232 af37 158d 7439 0b43 f238
000001b0: 4402 5439 809c aab8 8aca b639 69a9 d7b8
